model/ppo_fjsp.pth (torch, 157703 bytes, 33 tensors)

fc1.weight f4 [64, 25]
00000000: 4c14 413d 9cd1 dc3d 5070 ac3d 4879 35be
00000010: 3418 ad3d a0d5 b73d 398a 8fbc 95a6 84bd
00000020: 62c6 503e 8ea8 273c 2267 8e3d 0f5b 543e
00000030: 699c 013e 7692 c43d 2730 793e f01d cc3c
00000040: f7ce d8bd d386 163b 4f5f d0bd dece d93e
00000050: d601 fcbd 22b6 aebd d439 db3d 2c1b 29be
00000060: 4bf5 9ebe 0af9 833b d159 16be ea16 6cbe
00000070: 8cf8 92be d46e 4ebd 6691 b53d 4327 cf3d
00000080: 8ad7 6cbe c4c0 1fbe 970f 72bc ecf4 a2bc
00000090: b286 2dbd 0e9a 13bd 86fa 473d da81 34be
000000a0: 496a b4bd 18b0 d43d c3ac af3c d0b7 8cbc
000000b0: 180a a0be 9de2 ba3d e6bb 29bd dd7a 833e
000000c0: ded1 e43d 9529 6b3e e270 e1bd 7d46 32be
000000d0: 9091 893c abcc 5bbd 2d61 09bc f447 8ebd
000000e0: 3fe7 6a3e 3d50 55be 4ffe 9dbd e5dd 373d
000000f0: 791e 5ebc 4830 01be 1579 973d 4576 b2bd
00000100: fd05 cc3c 7c02 553e 4044 ccbd 7ed6 7d3d
00000110: 14bc 15be b893 b8bd e479 34bd 4ad9 943e
00000120: 1b8a f63d 9b72 2f3d 87c8 2b3e cb94 c43c
00000130: 95d0 8cbc dd40 953e ef5f da3c 42ab 893d
00000140: cc8f 4e3e 5d02 c0bd 3e8c 933e 4b05 163e
00000150: ad60 7d3d 140f dbbd 39c6 143d cf99 093e
00000160: 4981 a8bd 7581 d9bc 5dcb 00be 456d c5bc
00000170: 63db 2abd 8045 bb3d 829d 133d 4f67 e6bb
00000180: 0681 393e ace2 a9bb 13e1 303e 4b1b a0bd
00000190: c8b7 1fbe ae35 51be 9795 6a3d e080 2fbd
000001a0: cc72 6dbd 3c89 d33d fc4d 873e fa90 1cbe
000001b0: ec75 31be fd09 abbd 7d87 7c3d 6feb 963e
000001c0: 73ab d6bc c39b 1ebd 52d9 a2bd c429 413e
000001d0: 2640 fc3d 58a5 b33d 9ff5 083e de08 72be
000001e0: 1c55 753e 41ca 1fbd cc99 5d3c bc62 823e
000001f0: 6f06 f5bd 1dfb 5e3e 0429 8b3d ae6c b53d
00000200: 1785 7dbd 0386 343e 0f0a 163d a9e0 df3c
00000210: 8066 643d e640 3dbe ea95 033e 8c62 15be
00000220: 6e03 3f3e d2ba 1dbe a33b dfbb 20f5 073e
00000230: 978c ca3d d8e2 ae3c cdab 81bd c308 7bbe
00000240: 1936 e3bd 974d a3be 86b6 e8bc ee18 81bc
00000250: 18fe b4bc 0abe 4e3e 58af 8cbe 62e6 8fbd
00000260: 1ffc 2bbe 2e89 e7bd c4f2 343c f998 093e
00000270: e437 533e 2ccf 1f3e eda6 4cbe 8293 95be
00000280: a7e1 83bc ec1a 603d 88e1 793d a5f8 d2bc
00000290: 9660 143e f40e 64be 85c7 edbd d96d 903d
000002a0: 9e4e 593e 6986 d8bd ceb4 45be 0537 b73b
000002b0: 7a6f 8cbd f9ff 383e cf92 5bbe 8ca2 903e
000002c0: e841 20bd f6bf 04be ad9e 96bd b7b6 153c
000002d0: b2f4 a5bd 813b 8d3d 3b82 4cbd 288c 5e3d
000002e0: d1b9 e5bd eeb7 dfbd e66b 96bd 8a4f c9bd
000002f0: 199b 47bd d187 cd3b 5493 e4bd ec47 abbd
00000300: 6a1b af3d c6d8 e6be ce11 803e 6372 0b3d
00000310: c437 f7bd c43f 30be 5b6d 8b3d cb5e 753d
00000320: cffa 5b3c b0e7 9fbd 1621 26be 2fdd 3cbe
00000330: 3532 033e 1857 2e3e e695 beba 6ea5 223e
00000340: ed88 63bd 21ab 52bd 4de3 d33d 2e6c 01be
00000350: 0557 27be c726 ad3d 700f b3be 74d3 a23b
00000360: 5802 38bd 5ebc 43be b6f4 183d f65b 753d
00000370: 176c 8b3d 0b45 1ebc 08fc 4fbe 8d3f 76bb
00000380: 9e9e 2d3e e1ae 303e f50f ecbc 2597 543d
00000390: 843d 03bd 825d 1d3d 6376 38bd 206a 993d
000003a0: 648f 463d dee0 5a3e 9dda 113e 584e 34be
000003b0: a1e2 d53d d4af a1bd 9c14 f7bd 80f4 72bd
000003c0: 70da 8c3c 2d17 81be 387f 04be e11b 833c
000003d0: 9496 213c 68ff 183d e3de 9fbe 6f93 3cbd
000003e0: 2acc 03be 75fb 723e 0efb c8bb 28ec 47be
000003f0: 1fa7 1fbe 5276 0ebd ca45 3f3e a2a0 513d
0.047138497 0.10782167 0.084198594 -0.17722046 0.08451882 0.089762926 -0.017521964 -0.064770855
0.20388177 0.010233058 0.06953265 0.20737861 0.12657322 0.09598248 0.24334775 0.024916619
-0.105863504 0.0022968545 -0.10174429 0.4254064 -0.12305038 -0.08530833 0.10704389 -0.16514271
-0.3104652 0.0040274905 -0.146827 -0.23055616 -0.2870525 -0.050398663 0.08865623 0.101149105
-0.23129097 -0.15600878 -0.014774225 -0.019892178 -0.042364784 -0.03603559 0.048822902 -0.1762766
-0.08809335 0.1038515 0.021444684 -0.017177492 -0.312577 0.09125254 -0.04143896 0.25679675
0.111728415 0.22965081 -0.11007859 -0.17409702 0.016793042 -0.053661983 -0.008384985 -0.06947318
0.22939776 -0.2083139 -0.07714521 0.04488935 -0.01355707 -0.12616074 0.073961414 -0.087139644
0.0249052 0.20801729 -0.09973955 0.061972134 -0.14622527 -0.0901255 -0.044061556 0.29072028
0.1203806 0.042833906 0.16775714 0.023996731 -0.017189303 0.2915105 0.026657073 0.06722118
0.20172042 -0.09375451 0.28817934 0.14650457 0.061859775 -0.10696235 0.036321852 0.1343758
-0.08227784 -0.026550988 -0.12577577 -0.024099955 -0.04171313 0.091441154 0.036038883 -0.0070313583
0.18115625 -0.005184492 0.17273359 -0.07817706 -0.1559745 -0.20430633 0.057271566 -0.042847514
-0.057970807 0.1032891 0.26426685 -0.15289679 -0.1733014 -0.083515145 0.06165265 0.29476497
-0.0262048 -0.038722765 -0.07951607 0.18863589 0.12316923 0.08771771 0.13374947 -0.23636195
0.23958248 -0.039011244 0.013525438 0.25465953 -0.11964118 0.2177548 0.067949325 0.0885862
-0.061894502 0.17629246 0.036630686 0.027328806 0.055761814 -0.18481788 0.12850156 -0.14588374
0.18653652 -0.15403298 -0.006812529 0.13277102 0.09890097 0.021348402 -0.063315965 -0.24515061
-0.11094303 -0.31895134 -0.028407346 -0.015758958 -0.022093818 0.20189682 -0.27477527 -0.07026364
-0.16795395 -0.11305462 0.011044208 0.1343726 0.2062679 0.15606374 -0.19985552 -0.29214102
-0.01609881 0.054713175 0.0610061 -0.025753329 0.1448997 -0.22271329 -0.11610321 0.07052202
0.21221396 -0.10572512 -0.19307253 0.0055912756 -0.068572 0.18066396 -0.21442722 0.28249013
-0.039125353 -0.12963852 -0.07354484 0.009137801 -0.081033126 0.06896115 -0.049928885 0.054332882
-0.11217082 -0.10923754 -0.07344799 -0.09829624 -0.048731897 0.006272294 -0.11160913 -0.083633274
0.08550151 -0.4508726 0.25013584 0.034044635 -0.12071183 -0.17211825 0.06807967 0.059904855
0.013426497 -0.07807863 -0.16223559 -0.1844375 0.12812121 0.17025411 -0.0014540523 0.15883419
-0.055550504 -0.051432732 0.103460886 -0.12638924 -0.16341789 0.08454662 -0.34972715 0.004969055
-0.04492411 -0.19114825 0.03734275 0.059902154 0.06807726 -0.009660016 -0.20310986 -0.00375745
0.16955039 0.17254211 -0.028816203 0.051901955 -0.032041088 0.038419254 -0.045034777 0.07490945
0.04847659 0.21374843 0.1424355 -0.17608011 0.10443617 -0.07894865 -0.12064478 -0.059315205
0.017194003 -0.25212994 -0.12939155 0.016004505 0.009862561 0.03735295 -0.31224737 -0.04603904
-0.12870851 0.23728736 -0.0061334437 -0.1952368 -0.15591095 -0.034780808 0.18678966 0.051178582

fc1.bias f4 [64]
00000000: b84b 773d 8eda 79bd cac2 4dbd 7599 ab3d
00000010: 4796 a33d 43b5 9fbd f463 a23d 361b eabc
00000020: 0a5f 9dbd 219f a9bd 0c2b a0bd f5e7 6fbd
00000030: 23c6 4a3d 04b2 66bd ec60 ac3d 723c ab3d
00000040: 33e3 2bbd 7587 bbbd 943c a8bd d801 983d
00000050: b55b 75bd 9ddb 0abd aca4 983d 10b9 50bd
00000060: 3d94 a73d bed8 2fbd a928 023d dcf1 8cbd
00000070: babb 87bd d304 9f3d e98f 383d 7b9b 5dbd
00000080: b63a 8dbd 3f7d 3fbc 5f97 3bbb b8a9 503d
00000090: 7671 4fbd 32e4 6bbd ec8c 853d c3da 4dbd
000000a0: 60da 343d d470 863a c019 9c3d 4506 eebb
000000b0: 8b7c c7bc bcb9 9dbd c0af 98bd 3133 a2bd
000000c0: 4509 773d f5cf 783d aa3f 8a3d 99cb 8a3d
000000d0: 4fc9 733d ff42 413d d951 873d 0690 34bd
000000e0: cc34 55bd da1c 973d b10e 803d 6745 8fbd
000000f0: 2c3b a0bd 73e4 8bbd ded1 7d3d 0c28 98bd
0.060374945 -0.060999446 -0.050234593 0.08378879 0.079876475 -0.07798245 0.07929221 -0.028577428
-0.07684143 -0.082823046 -0.078207105 -0.05857082 0.049505364 -0.056322113 0.08416924 0.083611384
-0.04196472 -0.09156696 -0.08214679 0.07422227 -0.05990191 -0.033900846 0.07453284 -0.05095774
0.08182571 -0.04293131 0.031777058 -0.068820685 -0.06627603 0.07764592 0.04505912 -0.054103356
-0.06895964 -0.011687576 -0.002862416 0.050943106 -0.050645314 -0.05759067 0.06521019 -0.050257456
0.04415357 0.0010257014 0.07622099 -0.007263931 -0.024351379 -0.07701442 -0.07455397 -0.0791992
0.060311574 0.0607452 0.06750424 0.067771144 0.059518155 0.047183033 0.06607408 -0.044082664
-0.052052304 0.0737855 0.06252802 -0.06995659 -0.07823786 -0.068306826 0.061967723 -0.07429513

fc2.weight f4 [64, 64]
00000000: 8e7e 343e d648 51be cd83 e73d c95e 79bd
00000010: c872 593d 4a0f 94bd 2b27 b6bd b5bc 35be
00000020: 7f34 933d 6f1c ac3d 919d da3d f37a 2cbe
00000030: f1e8 493e daf7 09be c498 233d 0056 a23d
00000040: adf0 25be a3bb 28be 234c a0be 25a8 6a3e
00000050: 8fb8 6bbe 93ab ecbd fb0d 3d3c e6db 3fbd
00000060: b570 d9bd cb02 44bd 3c2d 49bd f6f5 533d
00000070: b1a6 99bd 1d9d 6e3e f3d2 a63d c291 d6bd
00000080: b8b2 063e de1c 02be 14bf 843e 1b25 0a3e
00000090: e1c8 21be 6be2 8dbe c139 a93d 2fdb fe3c
000000a0: 3869 5abd 3c19 8e3d e656 d93d 94f4 bebd
000000b0: cea4 543d e409 29be 6971 8fbe b97f 5fbe
000000c0: dc90 133e c8a6 713e 0eae dabd 8a6a 663e
000000d0: be16 093e 6b6f 863e c79a 0a3e 8b2b 0abe
000000e0: d2ab edbd c741 f93d c54f 393d 5000 dabc
000000f0: c5f5 93bd 40e2 80be 8130 84bd 10bf 87be
00000100: 9a31 8bbd d49d c73e fe68 a03d 6be3 0e3d
00000110: 7bc4 bb3d 0d1f 673d d7f6 5c3b fcc7 093c
00000120: 56c0 a3bd 6759 c3bc 67d6 5b3e 2090 9f3c
00000130: d956 9c3e 0aa0 2c3e 7325 753d e8b6 1ebd
00000140: ce86 cc3e 9254 06be 4d8e 41be 2df1 80bc
00000150: e910 9c3d 14f8 733e dd92 f13c a800 0b3e
00000160: ef3a cfbd 21f4 67bd 78fe a83e fb72 25bd
00000170: dd0c 49bd 5213 37be 3187 143c 2d90 b93d
00000180: 7364 52be be9a fd3d bf79 e73e a883 613e
00000190: 8b69 d23c 5743 6bbd 13c4 69be aa08 61be
000001a0: 4c54 58bd a80f 37be 3c7d 7fbc 46a2 77be
000001b0: d285 0fbe 0991 403d fd98 5bbe 2101 0abd
000001c0: dc0e 5bbe b125 8fbb 2c55 f23d a452 e63d
000001d0: c343 41be 4474 67be b113 4d3e 2e1d b33d
000001e0: 0f69 95bd 0225 743d 023e babc 9b77 01be
000001f0: 3c49 023e de3f 54be b9d6 c1bd 40c6 d9bd
00000200: de4b 0bbd c203 4ebd 3416 8c3d ceea 093e
00000210: 35e5 c03d c38c 503d 0a4a 213e d399 02be
00000220: 8190 50be 1825 383e 9a7d 183e bd60 3abd
00000230: fb35 9b3e 0768 0f3e eb1d 82be 8f37 ed3d
00000240: 6c0a c23e b944 f63d 4255 763d 5b40 eebc
00000250: 4478 f43d 418e 2b3e 70af 253d d0f0 7d3d
00000260: eb13 a6bd 4175 3c3e cf41 8abd 7fec 403e
00000270: 9b62 f13d 8b60 bfbc 25d4 3fbd 6173 3a3d
00000280: 7bfe 1abd 65fe 24be 9792 673e 8ba7 683e
00000290: b0fa 73be c9fd ad3e 363e 023e 4d56 f53d
000002a0: 5cc9 a93d 39ed dabd 300f 773e 0213 c5bd
000002b0: 6271 08be f4c5 b53d d483 5c3d 39c4 423d
000002c0: 2bf3 b8bc 4798 033e 3026 b1bd eab3 563d
000002d0: 32d7 24be f2be 48be 0d30 7f3d b2b0 6dbd
000002e0: 6ac5 85be 5771 d13d 0ccc 33be e261 88bd
000002f0: 0947 0e3e c42b 2fbd 043d 05be 92b1 023e
00000300: 6673 cd3d ea2e 473e fcdf 28bd a70d abbb
00000310: ff3c 79bd 697e fb3d e60a 50be 6078 8b3e
00000320: ed05 273e dadb 9f3e 027a a13e 3e61 68bd
00000330: 40fc 89be 1047 493e ba66 f0bd 440a 133d
00000340: 6778 8f3e 8cfb 3e3e 5df4 0abd da18 4b3c
00000350: b585 263e b6f6 1d3e e9aa a3bd 1425 7d3d
00000360: 67d1 dcbc 2ffc 41bc 802b 92bd 207f 32bd
00000370: 93c6 6cbb 94d1 3bbe 46c7 483c b57f b73d
00000380: ef88 a83b dad6 5e3e a3f8 ce3d 94c4 d5bb
00000390: 8f04 6dbd 2f96 c53d 6469 febd ef01 2f3e
000003a0: d656 33bd cde3 18bc 25c8 36be 44f4 b23e
000003b0: e288 153e 3690 2cbe 5a46 043e f24d 163e
000003c0: 3871 da3d dace 80bd f424 ffbd 9d17 41be
000003d0: 66a4 a2bc dfbb ff3d d027 61be 79c4 ae3d
000003e0: fb83 a83d 2a86 82be 2f2a 29be 7f30 5f3e
000003f0: 91b0 733d d713 2b3e 88dd 83be 2780 f73d
0.17626402 -0.20437941 0.11304436 -0.06088141 0.05308798 -0.07229479 -0.088941894 -0.17747767
0.07187747 0.08403861 0.10674585 -0.16843776 0.19717766 -0.13473454 0.03994061 0.079265594
-0.16205092 -0.16477828 -0.31308088 0.22915705 -0.23019622 -0.11556163 0.011538978 -0.04684057
-0.106172 -0.047854226 -0.049115404 0.05174824 -0.07502497 0.23302121 0.08145704 -0.1047702
0.13154113 -0.12706324 0.2592703 0.13490717 -0.15799285 -0.27711806 0.08262969 0.031110374
-0.053323 0.06938407 0.10612278 -0.09323993 0.051914982 -0.16507679 -0.28016213 -0.21826066
0.14410728 0.23598778 -0.106777295 0.22501579 0.13387582 0.2625688 0.13535605 -0.13493173
-0.11605038 0.12170749 0.04524209 -0.026611477 -0.07224611 -0.25172615 -0.06454564 -0.26512957
-0.0679657 0.389876 0.07832526 0.03488485 0.09168335 0.056426097 0.0033716464 0.008409496
-0.079956695 -0.023846341 0.21468507 0.019477904 0.3053501 0.16857925 0.059850167 -0.03874865
0.39946598 -0.13118199 -0.1890194 -0.015740002 0.07620413 0.23825103 0.029488975 0.13574469
-0.101186626 -0.056629304 0.33006644 -0.040392857 -0.049084533 -0.17878464 0.009065435 0.090607025
-0.20546131 0.1238303 0.45210072 0.22022879 0.025685092 -0.057437267 -0.22828703 -0.21975961
-0.052814767 -0.17877066 -0.015593823 -0.24182996 -0.14015892 0.047013316 -0.21445079 -0.033692483
-0.21392387 -0.004368507 0.118326515 0.11246231 -0.18873505 -0.22602946 0.20027043 0.087458
-0.07295429 0.059605606 -0.022734646 -0.12643282 0.12723249 -0.20727488 -0.09464783 -0.10633516
-0.0340079 -0.050296552 0.068401724 0.13468477 0.09418718 0.05091549 0.157509 -0.12753992
-0.20367624 0.179829 0.14891663 -0.045502413 0.3031462 0.14004527 -0.2541345 0.115828626
0.37898576 0.120248266 0.060139902 -0.029083421 0.11937001 0.16753484 0.040450513 0.061997235
-0.08109268 0.18404104 -0.06750833 0.18840216 0.117863856 -0.023361465 -0.046833176 0.04552019
-0.037840348 -0.16112669 0.22614513 0.22720163 -0.23826098 0.33982685 0.12719044 0.11979351
0.082903594 -0.10689778 0.24126887 -0.09622766 -0.13324502 0.08875647 0.05383666 0.047550414
-0.022576889 0.12851058 -0.08649862 0.052417673 -0.16097715 -0.1960409 0.062301684 -0.058029838
-0.26127177 0.10226696 -0.17558306 -0.06659295 0.13894285 -0.042766348 -0.13011557 0.1276305
0.10031776 0.1945149 -0.041229233 -0.0052201333 -0.060849186 0.1227997 -0.20316657 0.27240276
0.16310854 0.3122242 0.31538397 -0.056733362 -0.26950264 0.19656014 -0.117383435 0.035898462
0.28021547 0.18650645 -0.03392445 0.012396062 0.16261943 0.15426144 -0.07991583 0.06180294
-0.02695532 -0.01183991 -0.07137203 -0.043578267 -0.0036129102 -0.18341666 0.012254542 0.08959905
0.005143277 0.21761647 0.101060174 -0.006523678 -0.057865676 0.09647786 -0.124224454 0.17090581
-0.043783985 -0.009331656 -0.17849787 0.34951985 0.14602998 -0.16851887 0.12917462 0.14678171
0.10666126 -0.06289454 -0.1245822 -0.18856664 -0.019853782 0.124870054 -0.21987844 0.08533568
0.08228298 -0.25492984 -0.16519998 0.21795844 0.05949456 0.16706787 -0.25754952 0.1208499

fc2.bias f4 [64]
00000000: 91a7 953d 1387 c8bb 8b06 bdbc 5bbe 9fbd
00000010: 626e 6cbd 1a96 98bb a6f8 90bd 0297 3c3b
00000020: 2230 8e3d 3da1 333d 11bb c3bc 3952 903d
00000030: 94b8 4ebd 0441 32bc a8d7 913d 49ff a2bd
00000040: 029a 883d 878d 9ebd f429 943d 737a da3c
00000050: 4a90 88bd a29b 8f3d 9438 8ebd f532 55bd
00000060: 2261 9fbd d9f9 36bd dd1f 9abd 73d8 5bbd
00000070: cb06 9dbd 2548 983d 9d0a a63d e148 8c3d
00000080: 9d7f a53d 52b1 783d 737d 4ebd 490f 9bbd
00000090: 49b2 60bd 131f 823d dda7 1b3d c5d1 33bc
000000a0: 9ad4 ff3c da78 953d 3024 943d 700e 8a3d
000000b0: 45ed 9f3d a1cb 5cbd b3b5 8bbd 6d37 3b3d
000000c0: 5262 ee3b 8857 8e3d 3f36 88bd 016a a13d
000000d0: b339 38bd 9e4d 2cbd b5b5 69bd 05e5 963d
000000e0: 7fdb c5bb b0fe 8cbd 5f88 863b 6fac 433d
000000f0: 42db 96bd 3556 603d fd97 7f3d 1271 653d
0.073073514 -0.0061196177 -0.023074409 -0.07799979 -0.057722457 -0.0046565654 -0.07078676 0.002877653
0.06942774 0.04385494 -0.023892911 0.07046933 -0.050468996 -0.010879759 0.07121211 -0.07958848
0.0667 -0.07741838 0.072345644 0.026669716 -0.06668146 0.070121065 -0.06944385 -0.05205055
-0.077821985 -0.044671867 -0.07525609 -0.05367322 -0.07667311 0.074356355 0.08107493 0.06849838
0.08080981 0.06071598 -0.050412606 -0.07571275 -0.054857526 0.06353583 0.038001884 -0.010975306
0.031229306 0.07298441 0.07233465 0.06741035 0.078089274 -0.053905133 -0.06821766 0.045707155
0.0072749043 0.06950289 -0.066509716 0.07881547 -0.0449769 -0.04206621 -0.057058055 0.07367901
-0.006038129 -0.06884515 0.004105612 0.047771867 -0.07366039 0.054769713 0.062400807 0.056016035

fc3.weight f4 [4, 64]
00000000: 1a44 443d dd74 1dbe 9206 acbd ce93 3fbd
00000010: ad6b 31bd bcee 8e3d 9173 58bd b17d 69bd
00000020: ac7f a63d d2e5 9f3d 287f c5bd a991 063d
00000030: a50d 8fbd a3b1 bf3d cb51 583d c0b2 28bd
00000040: 8cfb 0a3d 5d7b 59bd 1929 773d 18e8 04bc
00000050: 07f9 5cbd 444f 2c3d f01c 2abd 08d1 6cbd
00000060: b651 11bd 7ea1 9cbd 6965 49bd 94a2 c53a
00000070: a77c 21bd 9d70 2b3d 037d 333d 45e7 be3c
00000080: f1b0 533d 9487 ad3d b991 f0bc c24e 3cbd
00000090: 8aac c2bc 5fb1 0d3d a6eb 7e3d 5ab7 e73d
000000a0: 5d91 3ebd b549 373d 8ff5 223d 4e85 0f3d
000000b0: fd3a 483d 004e a0bb 28db 19bd 583f 143d
000000c0: 2d81 e73d ab41 0d3d a825 9ebd 2781 1a3d
000000d0: 9f36 6bbd 0487 50bd 5781 51bd d729 f43c
000000e0: 4d15 07be 1ffe d4bc cb3e 133e 9dc2 5ebc
000000f0: beee 2abd 311b 493d 3a13 013d 6981 1b3d
00000100: 3314 5b3d 618a 363e 32ae 453d af9c 50bd
00000110: 4b06 cabc 0f4b b7bd b084 ffbc 263e 123e
00000120: 6455 f43c 9991 40bc eee0 b43c a946 503d
00000130: 5d55 9c3a a8f0 efbd ea4e d53c dadc 6dbd
00000140: d937 503d 86b9 7bbd b357 063d 1e20 b43d
00000150: aeda 15bd 0b65 363d 7268 2bbd 8fe0 42bc
00000160: 1a8b 6cbd c1fe 133c ed74 74bd c1fb b7bd
00000170: 6696 59bd 1966 403d b64c 3e3d 76d3 6c3d
00000180: d1c1 4b3d 2a7d 493c 9a6b dfbc d670 94bd
00000190: 0548 7fbd 3f16 4a3d 793f 1dbb 9641 32be
000001a0: 19e9 0f3e 2f30 693d 919d 5f3d cf13 5a3d
000001b0: 5b38 523d d1af babd a12d 48bd 6c9e 603c
000001c0: 89fa f3bd e80b 453d 8720 88bc 2679 613d
000001d0: 8aae 2fbc b7d2 02bb 73f9 90bc 8c38 363d
000001e0: b0dd 1b3e 00ac 8bbd 1029 15be 5691 933d
000001f0: 4f87 06bd 806c c43c d7f4 413d f11f 5b3d
00000200: 860b ccbd b29f 18bd 82f3 f73c 5a27 ac3d
00000210: 34f3 463d c9f4 843d c5a8 723d 55d0 b0bd
00000220: d38f c3bd d7e4 6fbd 7a0f 823d 09f4 8dbd
00000230: 0231 773d cefe 4d3d 0072 72bd a085 b73d
00000240: 1765 a4bd f7ed db3d b5a1 d0bd f13a a1bd
00000250: 713e 853d ae27 89bd 96f0 703d 995e 5d3d
00000260: 1df7 9c3d a8b9 1c3d 7488 c73d b864 e33d
00000270: b49d a03d 7055 85bd acae 8ebd 0310 86bd
00000280: 242b c2bd 8d14 bcbd 0db2 283d 7595 cb3d
00000290: 1aba 9c3d e3df 85bd 7408 2fbd 5ccb b73d
000002a0: 7233 ccbd a0ee b1bd 9221 b2bd a482 97bd
000002b0: 1961 b7bd c014 a03d ed22 a93d 59d5 e1bc
000002c0: ae60 f13b 96ce 74bd 9fed b73d 023d 8abd
000002d0: 7c4f 793d 0f4e 083d 6db9 793d 4350 52bd
000002e0: 9f3b 5fbd 155d a93d 0683 cb3c 6662 8abd
000002f0: 9ef3 803d 4780 7bbd dada 88bd 5445 bfbd
00000300: 64a9 b5bd f558 4c3d 212f 873d c299 ae3d
00000310: 50c6 a53d 471b d5bc f760 c03d 94e9 1ebd
00000320: 7d47 a6bd 9531 a7bd a043 bf3d 2773 9bbd
00000330: bd08 c53d 3453 b9bc b3ca b6bd c8ae aa3d
00000340: d894 94bd 8610 ba3d a019 96bd 3abd 91bd
00000350: 07f9 bb3d ea1f adbd 624e a83d 5d21 b23d
00000360: 7797 b63d 2dcc 953d 77b1 ae3d 9288 523d
00000370: 25da af3d 860a adbd 5461 a0bd 7aa5 a3bd
00000380: 5127 b0bd cb04 96bd 8d68 883d ff9b c83d
00000390: b170 9e3d 7a15 9dbd 70ec 9fbd 0bbc a03c
000003a0: 5e78 94bd 1eb1 a8bd 4041 b5bd 00b7 abbd
000003b0: f0c0 aabd 4fa6 9e3d a2ad 943d 3d0d a7bd
000003c0: 6558 e1bc 5116 b0bd 1963 9b3d 38af b6bd
000003d0: cde9 9a3d f1b2 993d d2a7 9f3d ee92 9bbd
000003e0: 3512 2a3d b1d0 973d 1a58 5abd b547 78bd
000003f0: f715 8f3d 593b a0bd 27c9 98bd 58b5 97bd
0.04791651 -0.15376611 -0.08399691 -0.046771817 -0.04331558 0.06979129 -0.052844588 -0.057004634
0.0812982 0.078075066 -0.09643394 0.032853756 -0.06985024 0.093600534 0.05281238 -0.041186094
0.0339313 -0.053096164 0.06034193 -0.008111976 -0.05394843 0.04206778 -0.041531503 -0.057816535
-0.035478316 -0.0764799 -0.049168978 0.0015078359 -0.03942552 0.041855443 0.043820392 0.023303637
0.051682416 0.08473125 -0.029366361 -0.045973547 -0.023763914 0.034592982 0.06223645 0.113142684
-0.046525348 0.044748027 0.039784964 0.03503924 0.04888438 -0.004892111 -0.03756252 0.03619322
0.11303935 0.034486454 -0.07722026 0.037720826 -0.057425138 -0.05091001 -0.05114874 0.029805107
-0.1319172 -0.02600008 0.14379422 -0.013596204 -0.04173159 0.049098197 0.031512477 0.037965212
0.05348606 0.17826225 0.04826183 -0.050930675 -0.024661204 -0.08949863 -0.0311912 0.1428152
0.029825874 -0.011753463 0.022079911 0.050848637 0.0011927296 -0.117158234 0.026038606 -0.05807195
0.05083451 -0.061456226 0.03279848 0.08795188 -0.036585502 0.044529956 -0.041847654 -0.011894359
-0.057749845 0.009032906 -0.05968182 -0.08983565 -0.053121947 0.046972368 0.046459876 0.057818852
0.049745385 0.012297908 -0.027272988 -0.07248084 -0.062324543 0.04933762 -0.0023994131 -0.17407832
0.14053763 0.056930717 0.054593626 0.053241547 0.051323276 -0.091155656 -0.04887164 0.013709646
-0.1191302 0.048107058 -0.016617073 0.055047177 -0.010722766 -0.0019962022 -0.017697072 0.04448752
0.15221286 -0.06819916 -0.14566445 0.07205455 -0.032843884 0.023977518 0.047352638 0.05349726
-0.099631354 -0.037261672 0.03026748 0.08405943 0.04857178 0.064920016 0.059242982 -0.08633486
-0.09548917 -0.058567848 0.06350608 -0.06931312 0.060349472 0.05029183 -0.05919075 0.08961034
-0.08027094 0.107387476 -0.10187093 -0.0787257 0.065060504 -0.066970214 0.05882319 0.054045293
0.076643206 0.038262993 0.09742823 0.11103195 0.078425795 -0.065104365 -0.0696691 -0.06546023
-0.09480885 -0.09183607 0.041185427 0.09940616 0.076526836 -0.06536844 -0.04273267 0.089743346
-0.0997075 -0.08688092 -0.08697809 -0.073979646 -0.08954067 0.07816458 0.08258615 -0.027567552
0.0073662614 -0.05976733 0.089808695 -0.067499176 0.060866818 0.033277567 0.06096785 -0.051346075
-0.05450022 0.08269707 0.02484275 -0.06757049 0.06296466 -0.06140163 -0.066823676 -0.09339395
-0.08870199 0.049889524 0.06600786 0.08525421 0.08094466 -0.026013983 0.093934946 -0.038796976
-0.08119104 -0.08163754 0.0933907 -0.07590323 0.09620807 -0.022622682 -0.089253806 0.08334118
-0.07254952 0.09085183 -0.07329106 -0.0711617 0.091783576 -0.08453353 0.08218075 0.0869777
0.089156084 0.07314334 0.085299425 0.051399775 0.0858653 -0.08449273 -0.07831064 -0.079905465
-0.08601249 -0.07325133 0.066605665 0.09795379 0.07736338 -0.07670112 -0.07808769 0.019620916
-0.07249521 -0.082369074 -0.08850336 -0.08384514 -0.08337581 0.077465646 0.0725968 -0.08156822
-0.02750797 -0.085980065 0.07587261 -0.08920139 0.07564125 0.075048335 0.07795681 -0.07596384
0.04152127 0.074128516 -0.053306676 -0.06061526 0.06986611 -0.0782382 -0.07460242 -0.074076355

fc3.bias f4 [4]
00000000: 13ed 073d 7733 0f3d 4fe9 58bd 5d23 78bd
0.033185076 0.03496119 -0.052956875 -0.0605806

fc1.weight f4 [64, 25]
00000000: 101e 703d b3a2 94bd a5f6 ff39 fd4e 45bd
00000010: aba0 4abe 2668 b9bd da8d 7dbd ba3d 823d
00000020: 6bd1 053e a440 4fbd b5a7 bebd 0b4a 9a3b
00000030: b7fb 1b3e 59a1 e53b 3aed be3d 9f8c 523e
00000040: d3c8 213e 8725 8ebc 2df5 1b3e 9381 81bd
00000050: faf3 743d 8e52 0dbe 9c4c 863e f2c3 633c
00000060: b0a4 9abd ff3b 53be b618 08be c1ef 1abe
00000070: 8bdb e33c 44e9 38bd 20c1 213d 5337 68be
00000080: 2026 6cbe 28bc 36bd 8bf1 0cbd 07ab ff3c
00000090: c433 17bd b92f 943e 93c1 f4bc d528 16bc
000000a0: 98a1 013e 2641 9abe d0c4 2a3c c22e 1fbe
000000b0: 914c b13c 8520 10be 87b9 273e 8c9c 873e
000000c0: addf 3b3e ee14 333e 9a97 04bd a18b 86bd
000000d0: bbb9 bdbd 501c d4bd 5fe7 d73d 5213 903d
000000e0: baab a83d 5b4b bc3d f720 58be 8cec ffbd
000000f0: d218 f1bc 50bb 20bc 0e4a 29bc fca2 0e3b
00000100: 5109 9fbc bf65 153e df12 653e d9e8 45be
00000110: bc19 e8bc 6c7d ccbd a6c8 553e 4676 5e3e
00000120: e564 bbbd 4f69 153d adfe 86bd f112 50be
00000130: 2d8c 28be 00d1 1d3d b803 54be a65c a0bc
00000140: f362 07be 91ac bd3d 4b06 1d3d 71df 2b3e
00000150: 34f1 42be 598c 8e3d 7b84 97bd 1afe 633e
00000160: e81a 5c3e a964 9d3e 5261 9c3d 7933 adbc
00000170: 6bbb f9bd b544 f93d fc4f 32be d290 953d
00000180: f07f 3ebe fe96 0cbe 1cec 3a3e dba1 0b3e
00000190: 6d6a 33bd 08a9 253d a34f 3c3e 7491 0f3c
000001a0: 49d8 02be 4819 da3d 4682 8bbe 1952 5e3d
000001b0: 5f4a aebd 5b9a f73d 3727 4b3d ecf8 633d
000001c0: 3ed5 71bd 34cd f93d 893d a5bc 84b1 b2bc
000001d0: 91ef 683d 3bc9 883d 7cfd b4bc 3f95 0dbe
000001e0: 0a40 bfbd bd6c e8bd f2ad 543e f767 b93d
000001f0: 163d 78be 2cbf ec3d 2a10 a93e cbdc 11bd
00000200: f418 b53b e911 8dbd 6248 733c f14d 4d3e
00000210: 09e2 153d 8817 bebd 5e55 433d 0dea 78bd
00000220: 4897 25bd 940c b73d b4cf 133e 60f9 c73d
00000230: 7a32 2e3e 12bd 3cbe b331 1e3e fe0a d7bd
00000240: 1fa3 4dbd 6f46 003c f209 a6bd 5336 633e
00000250: bd10 c53d 3ce4 af3c c7f1 4ebe e8c9 b5bc
00000260: 7719 20be 9824 28be c5e1 48be 9d4b c2bd
00000270: 688a 913c 5761 43be 72b2 15bd ae22 a2be
00000280: 240a 69be 76fe f5bd b3d4 5c3d c8ba d93d
00000290: 4e9a cfbd 445c 50be 9a71 183d e677 b33d
000002a0: c5c6 a2bd 89c5 b1b9 81f3 5b3c 7291 483e
000002b0: e5cc d23d 1581 0abc 30cb ba3d ae73 25bd
000002c0: 70b1 79be bdb7 44bd 05d9 e2bd 403a 18bd
000002d0: 623b aa3c a09e 503d 53cf 3d3e 8526 a9bd
000002e0: 7c15 353e 7a45 6abe 24d2 a4bd ade4 8e3d
000002f0: 317b bd3d 32e1 463e a33e fbbd 9c4f 9cbc
00000300: becf bfbd aa05 40be 586a c1bd a260 5abd
00000310: 4e80 763e 709f be3c b22c efbd 9830 97be
00000320: fbac 6dbd 96c6 2abe 98f4 013d 54cd eebd
00000330: 2890 58be 2b88 cfbd f41a 353e 3bd3 8bbd
00000340: 03fe 463e 800c 733d 46b4 86bd 03ee 3fbd
00000350: 8a44 29bd a3bb e93d b5fd 5fbe 3e0e a4bd
00000360: 84f6 8f3d 3d69 143e e8f8 08bd e60f 1f3e
00000370: 3b4f 51bd bc7e 993e eddc 4b3e 56b8 0c3e
00000380: 7bc5 b33d 4549 90bd 345a be3d 5dd5 973d
00000390: 2b9e e93c 37ef 5abc 9414 093e d9d1 943e
000003a0: ff8b 2dbe cddb 513e d02a 4cbe 6d8d c5bc
000003b0: ce7d 80bd 75f0 9bbd 6314 56be bf55 11be
000003c0: 9160 de3d 5b59 fd3d 8b18 183e d200 c03d
000003d0: 1756 1fbe c099 43be 8143 7dbd 4257 9cbd
000003e0: caa3 a0bc 75e0 2cbe 8356 043e 4217 403d
000003f0: 2610 31be b18a 44bd 03da 9e3e 320e 093d
0.05862242 -0.07257595 0.00048821155 -0.048171032 -0.19787852 -0.09053068 -0.06190286 0.0635943
0.13068168 -0.050598755 -0.09309331 0.0047085336 0.1523274 0.0070077595 0.09322591 0.20561455
0.15799265 -0.017351879 0.15230246 -0.063235424 0.059802987 -0.13801023 0.26230323 0.0139016975
-0.07550943 -0.20628355 -0.13290676 -0.15130521 0.027814647 -0.045144334 0.03949082 -0.22677355
-0.23061419 -0.044613034 -0.03441004 0.031209482 -0.036914602 0.2894266 -0.02987746 -0.009165009
0.126593 -0.3012783 0.0104229 -0.1554518 0.021642955 -0.14074905 0.16379367 0.26486623
0.18347044 0.17488453 -0.03237114 -0.06569601 -0.09263941 -0.10356963 0.105421774 0.07034935
0.08235879 0.091940604 -0.21106325 -0.124962896 -0.02943078 -0.009810284 -0.010332597 0.0021764627
-0.019413622 0.14589594 0.2237048 -0.19327106 -0.028332584 -0.0998486 0.20877323 0.21724805
-0.091501035 0.036477383 -0.06591544 -0.20319726 -0.16459723 0.038529396 -0.20704544 -0.019575428
-0.1322134 0.0926143 0.03833608 0.16784455 -0.19037324 0.06960363 -0.073983155 0.22264901
0.21494639 0.3074086 0.0763575 -0.021142708 -0.1219395 0.12171308 -0.17413324 0.07303013
-0.18603492 -0.13729474 0.18254131 0.13635962 -0.043802667 0.040444404 0.18389754 0.008762706
-0.12777819 0.10649353 -0.27247828 0.054277513 -0.08510279 0.12089988 0.049597945 0.055657312
-0.059041254 0.121973425 -0.020170944 -0.021813162 0.056869093 0.06679007 -0.022093527 -0.13826464
-0.09338386 -0.11348865 0.2076948 0.09053033 -0.24242052 0.11559901 0.33020145 -0.035610955
0.0055266563 -0.06888182 0.0148488 0.20049264 0.036592517 -0.09281832 0.047688834 -0.060770083
-0.040427476 0.08937946 0.14434701 0.097643614 0.17011443 -0.184315 0.15448646 -0.105001435
-0.050204393 0.007829293 -0.08107366 0.22188692 0.09622333 0.021471135 -0.20209418 -0.022191003
-0.15634714 -0.1642021 -0.19617374 -0.09487078 0.017766193 -0.19080101 -0.03654713 -0.31667084
-0.22757775 -0.12011425 0.053913783 0.10631329 -0.10136853 -0.20347697 0.037217714 0.08763103
-0.079480685 -0.00033907246 0.013424755 0.19586733 0.10292987 -0.008453627 0.09120786 -0.040393524
-0.24384093 -0.04802679 -0.110765494 -0.037164927 0.020780269 0.050932527 0.18536119 -0.082593
0.17683977 -0.22878066 -0.08047894 0.0697721 0.092520125 0.19421843 -0.122678064 -0.01908093
-0.093657956 -0.1875216 -0.094441116 -0.053314812 0.24072382 0.023269385 -0.11678447 -0.29529262
-0.058026295 -0.16677317 0.031727403 -0.11660257 -0.21148741 -0.10133394 0.17686063 -0.068273984
0.19432835 0.059338093 -0.06577353 -0.046857845 -0.04132513 0.11412742 -0.21874125 -0.08010529
0.07029441 0.1449327 -0.0334405 0.15533409 -0.05110095 0.29979503 0.19908495 0.13742194
0.08777901 -0.07045225 0.09294549 0.07413743 0.028517803 -0.013362697 0.13386756 0.2906635
-0.16947936 0.20494004 -0.19938207 -0.024115289 -0.06273995 -0.07614223 -0.20906214 -0.14192866
0.10858262 0.12370559 0.14853112 0.093751565 -0.15560184 -0.1910162 -0.061831955 -0.076338306
-0.01960935 -0.16882499 0.12923627 0.04689718 -0.17291316 -0.04798383 0.31025705 0.033460803

fc1.bias f4 [64]
00000000: 2bfb cb3d b0b1 c13c 187d 003c bc45 bf3c
00000010: baa5 993c 3c0a 5a3c 2822 263d ee4c 203d
00000020: 1d72 8f3d eb96 87bc ff66 62bd 636f 663c
00000030: 76cd 273d 2ddf f33c 0b01 923d c6ff 533c
00000040: b11c aabd 3771 d13d 4869 3abd 0825 a1bc
00000050: 6ea3 883d 4830 45bd ba52 ecbb 923e 1b3d
00000060: bf50 59bd 62df 803d 0852 a8bc 61bb c63d
00000070: ce80 a7bc be5a a23c 781a 183d bd10 713c
00000080: 40c5 143d 6633 d73c 7848 cebc 4fcb fc3b
00000090: e2cb 03ba d4a6 86bd e3f3 15bd 1f94 debc
000000a0: 5954 a83d 3b0c 783c 2830 c33b 88ff 103d
000000b0: 5808 11bd 1850 b93b 891d b93c ce5f 45bd
000000c0: 6091 6dbd 67a3 853d 6bb6 273d cfa3 fbbc
000000d0: ab73 833d 7a45 96bc 4d0e 50bd 812e c1bd
000000e0: aa1f 35bd 25ba b33d 4b25 bb3c c773 923c
000000f0: 3afb aabd b59a 3abd ec59 913d 98c5 863d
0.09960016 0.023644298 0.007842325 0.023348682 0.018755782 0.013308104 0.040559918 0.039135866
0.07004187 -0.016551455 -0.055274006 0.014064643 0.040967427 0.029769504 0.07129105 0.012939399
-0.08306254 0.10226672 -0.04551056 -0.019670978 0.06671797 -0.048141748 -0.00721201 0.03790147
-0.05305552 0.06292607 -0.020546928 0.097037084 -0.020447161 0.01981866 0.037134618 0.014713463
0.036320925 0.026269626 -0.02518104 0.007714666 -0.00050276343 -0.06574789 -0.03660954 -0.027170239
0.08219213 0.015139635 0.0059566684 0.035399944 -0.035408348 0.0056553 0.022597091 -0.04818707
-0.05799997 0.06525307 0.04094545 -0.030717758 0.06418546 -0.018343676 -0.05079489 -0.09432698
-0.04421965 0.087757386 0.022844931 0.017877473 -0.08348699 -0.045557696 0.07097229 0.06580657

fc2.weight f4 [64, 64]
00000000: 3d6f 153e e3f5 b5bd 93fc 57bb 266b c03d
00000010: f784 ac3d 7f98 e13d 0463 3f3d 5c44 8b3e
00000020: e66b 513e 2d89 813e a2d2 04be 2be1 0e3e
00000030: 7341 54be 28af d0bc c025 2abd 55a1 2cbe
00000040: c9a1 6f3d 5ca3 c73d 48d5 2cbe 2d47 7fbd
00000050: 553a a4bb d4c2 73bd e373 23bd 3f48 99bc
00000060: 4df2 c9bd 870b 093e 9ebe 17be d5ee 9fbd
00000070: 1a3b babd 9844 88be 4e82 2cba c374 9abd
00000080: 0a39 023e 2756 08bc 3548 30be 7e14 503c
00000090: cbfb acbc 4543 0cbd 736f 483c 98df 6fbe
000000a0: 7128 b9bd 5c93 1dbd 86b4 083d 9782 a13d
000000b0: c5fa fabd d7ae a13d d54b 83be 12e6 afbd
000000c0: a1be aabb 40e8 603e 304a 293e 3236 6dbd
000000d0: 75db b8bb a78a 4a3d 2351 843e 6215 603d
000000e0: c723 db3d 21d7 9d3d 47de f73b 5c3d 7d3e
000000f0: 0dc1 183e a7bc d5bd 55c9 4d3d 8bfe cebc
00000100: 0a27 103e 720a c5bd 1d7c 023e 0d2b dc3d
00000110: c1ed 4bbe dfb3 f73c ac00 42be 6e81 a3bd
00000120: 1677 d13d f03a 89bd 9b2d dfbc 55c0 103e
00000130: ed40 51bd 50fb ddbd 2894 f03c 608c 033e
00000140: 9c4a 0bbe b22e 223e c656 fc3c 7291 36bd
00000150: 4259 ca3d 5935 afbc 2cd7 263e 209f 633b
00000160: d908 45be 3d38 613e bd03 68bc 154d e43b
00000170: eec8 02be 2b7e 9dbc afa0 abbe 9c8a e83d
00000180: 4de4 4dbd 0e3b 873d b8de cdbd 3556 df3d
00000190: 4eff 5f3e a043 28bc 8e4b 08bd 5aae 2a3e
000001a0: 9d3b 893d 4af0 53be d7a7 bd3c dfaf 073e
000001b0: 84fa 353b 79ee c33d eb20 413c 19b8 553d
000001c0: 5ffc b7bc edf8 f83c b9af ffbd 1c22 a0be
000001d0: 4b59 21be fffb 23be fc4e 18be 9018 e0bd
000001e0: 6594 06bb 3ad8 653d 6f28 993d 6e2c 403e
000001f0: 3fc4 09bd 715f 833e 174b da3d 85cd 003d
00000200: df18 19be 56b7 d0bc 4832 943d 4fb1 223e
00000210: fac5 c8bc 7696 7b3c d792 85bd 2705 09be
00000220: 5093 d6bd 22a7 d6bc 4623 213e 64de 1cbc
00000230: ebfa 95bd e63b 00be 9617 613c e6fc ad3c
00000240: 34b7 c6bc 89e4 153e 8da7 c23d ec3e a9b9
00000250: 0ff7 38bd 5455 03bd 7bc4 533d df61 99be
00000260: 7507 6ebc 87ac 73be 2c29 8cbe 6d87 c1be
00000270: e805 e4bd 6d49 913e 69a1 3e3d aa78 1d3e
00000280: 367d 353d 08c0 35be ffd9 7a3d 31a2 b13d
00000290: a608 e6bd 2a82 3fbe 0546 b3bd 1d2b 3b3d
000002a0: aee8 36be 921f 0dbc d2e3 4c3d 478a 353d
000002b0: dafb 0fbe 6370 59be 7f84 84bd 1f7d f1bd
000002c0: 4106 bf3d 97dd 4c3d 7a1b 053d d480 543c
000002d0: 8cf8 4bbe 2de4 a4bd b0b3 273e 3bb7 48be
000002e0: b05b c83d 8e54 37be e41d a8bd a2de efbd
000002f0: 596f ce3c d42c bdbd 1c35 c1bd 0ccc 793d
00000300: 3118 c73b fddc 0b3e c132 80bd cbae 38be
00000310: dca4 80bc 93ab 043d 9129 acbd ba18 b23d
00000320: 890b 623e 55e3 923e 07fa 58bd 2962 e9bc
00000330: 10f6 47be 71f3 4dbe 795b b1bd 8934 953d
00000340: e2cb ccbc 6f68 943d 6709 81be 0d5e 8d3d
00000350: 1990 f53d 24ff ea3c f91d e33d 6853 1bbd
00000360: 6d18 8fbe 3950 25be 9576 06be 49f1 503e
00000370: cd0f 3e3e 40f0 423e 3139 72bc acce 9b3d
00000380: 48ac b63d 4e64 343d 14c6 b83c 17c3 ad3d
00000390: f97b 20bd 3e5d 253e 4c33 e4bd 89f5 07be
000003a0: 3813 0d3e 990d ee3c bf8d 343e 3fe8 633e
000003b0: b010 f3bc d711 213d 679d 9c3e 7177 4d3a
000003c0: a41f 25be ce3b a1bd cc2a 3e3d fcfd 3e3e
000003d0: 08f2 8bbd 5517 b1bd 47ee 24be a085 143d
000003e0: 38f7 b4bd 1a67 1abd 562c b6bd 1d1e 733d
000003f0: 323e 5fbd 13d8 9cbd 14ae 913c 08d2 d13c
0.14593215 -0.0888479 -0.0032956942 0.09395437 0.084237985 0.110154144 0.046725288 0.27200592
0.20451316 0.2529997 -0.12970975 0.13953082 -0.20728092 -0.025474146 -0.041539907 -0.16858418
0.0585039 0.09747955 -0.16878235 -0.062323738 -0.0050118365 -0.059511974 -0.03990544 -0.018711207
-0.09860668 0.13383304 -0.14818808 -0.078092255 -0.09093304 -0.26614833 -0.0006580696 -0.07541802
0.12717071 -0.008321322 -0.17215045 0.012700198 -0.021116158 -0.03424384 0.012233603 -0.23425138
-0.09040917 -0.03847061 0.033375286 0.07886236 -0.12254862 0.07894676 -0.25643793 -0.08588804
-0.005210713 0.21963596 0.16532207 -0.057913013 -0.0056413957 0.049448635 0.25843152 0.054707892
0.10700183 0.07707048 0.0075643393 0.24730438 0.14917393 -0.10436373 0.050240833 -0.02526786
0.14077392 -0.09621133 0.12742658 0.10750399 -0.19914915 0.030237136 -0.18945569 -0.07983671
0.10227792 -0.067006946 -0.027243426 0.14135869 -0.05108731 -0.1083895 0.029367521 0.12846518
-0.1360268 0.15838125 0.030803096 -0.0445723 0.09880306 -0.021387743 0.16293019 0.0034732297
-0.19241656 0.2199411 -0.0141610475 0.0069671967 -0.12771961 -0.0192252 -0.3352103 0.11354563
-0.050266553 0.06603061 -0.10052246 0.109051146 0.21874735 -0.010270029 -0.03327518 0.16668072
0.067008235 -0.20697132 0.023151321 0.13250683 0.0027767727 0.095669694 0.011787633 0.052177522
-0.022459207 0.030392135 -0.12484688 -0.31276023 -0.15756719 -0.16014098 -0.1487388 -0.10942185
-0.0020535227 0.056114413 0.07478415 0.18766949 -0.03363442 0.25658754 0.106588535 0.031446
-0.14950894 -0.025478046 0.07236153 0.1588795 -0.024508465 0.015355697 -0.06522148 -0.13380872
-0.104773164 -0.026202742 0.15736112 -0.009574506 -0.073232494 -0.1252285 0.0137385335 0.021238755
-0.02425728 0.1463796 0.09504614 -0.00032281072 -0.04515749 -0.032063797 0.05170105 -0.29957482
-0.014528145 -0.23796283 -0.27375162 -0.37798634 -0.11133939 0.28376332 0.04654065 0.15378061
0.044308864 -0.17749035 0.061243054 0.08673514 -0.11232118 -0.18701997 -0.087535895 0.045695413
-0.17862198 -0.008613484 0.050021954 0.044321325 -0.14060917 -0.21234278 -0.06470584 -0.11791443
0.09327365 0.050016012 0.032496907 0.012970168 -0.19919032 -0.080513336 0.16377139 -0.19601147
0.09783113 -0.17903349 -0.08208826 -0.11712386 0.02519958 -0.09237066 -0.09433958 0.06098561
0.006075882 0.13658519 -0.062596805 -0.18035428 -0.015703611 0.03239019 -0.08406366 0.086961225
0.22074713 0.28689066 -0.05297282 -0.02848919 -0.19527459 -0.20112397 -0.08660025 0.07285411
-0.024999563 0.072464816 -0.25202486 0.069027044 0.11990375 0.028686114 0.11089701 -0.03792134
-0.27948323 -0.16143884 -0.13131173 0.20404543 0.18560715 0.1903696 -0.014784143 0.07607779
0.08919579 0.04404097 0.022555389 0.08484476 -0.03918073 0.1614885 -0.111425966 -0.13277258
0.13776863 0.029059218 0.17632197 0.22256564 -0.029671043 0.039323654 0.30588838 0.00078379276
-0.16125351 -0.07872735 0.046427533 0.18651575 -0.06833273 -0.08647028 -0.1610652 0.036260247
-0.08836216 -0.03769598 -0.08895175 0.05935489 -0.054502673 -0.076584004 0.017783202 0.025612846

fc2.bias f4 [64]
00000000: aab4 c23c b673 8a3c 148a b2bc c7ae cb3c
00000010: f85d d4bc ae0c c2bc c8a0 ac3c 5859 983c
00000020: ab8a 043d 5666 e93c df0c 323d 3630 02bd
00000030: 4b2d 83ba 53f8 9d3c d403 d53c 69f0 96bc
00000040: 4168 dc3c 4412 ec3c 2466 f53c 9c91 e73c
00000050: 0121 9d3c 29b9 113d f1ac 993c ec0b efbc
00000060: f5c7 ffbc 173c e6bc 964a 353d 5c86 e3bc
00000070: 13f8 db3c eaff b0bc cf89 adbc 213f 05bd
00000080: b8a8 c3bc da6d cabc 9135 0abd ab38 bdbc
00000090: 0340 a43b 87ec 1abd ccd6 95bc ee6a d83c
000000a0: 0b5c 1f3d 4c5b d4bc 87d6 c23c 9c7e 133d
000000b0: bb86 a6bc af29 073d 8a87 373d d169 19bd
000000c0: 863e 8e3c 6ec4 15bd dd53 c53c 1c11 c93c
000000d0: aab3 cfbc 2b02 bb3c 813e 033d 9598 a63c
000000e0: 09a9 423c b51a a53c 19c1 e5bc 3531 543d
000000f0: 6c6a 2cbd f08b b53c 15d7 3d3c 5fe3 7a3d
0.023767788 0.016900878 -0.021794356 0.024863614 -0.025923714 -0.023687687 0.02107276 0.01859729
0.032358807 0.02849118 0.043469306 -0.03178426 -0.0010008005 0.01928345 0.026002802 -0.018425183
0.02690518 0.028817303 0.029955931 0.028267674 0.019180777 0.035576973 0.018759223 -0.02918049
-0.031223277 -0.028104825 0.044260584 -0.027774028 0.02685169 -0.021606404 -0.021183876 -0.032530908
-0.023884162 -0.024710584 -0.03374249 -0.02309831 0.0050125136 -0.037823226 -0.0182909 0.026418176
0.03890614 -0.02592244 0.023783935 0.036009416 -0.020327916 0.032998737 0.044806994 -0.03745443
0.017363798 -0.036564283 0.02408784 0.024544291 -0.025354225 0.022828182 0.03204203 0.020336429
0.011881121 0.020154336 -0.028046178 0.05180474 -0.04209368 0.022161454 0.011586924 0.061251994

fc3.weight f4 [1, 64]
00000000: 7a1a 363e ebc4 223d 24d5 16be c286 173e
00000010: c3c7 52be 2039 d3bd 6f39 ae3e 348c da3d
00000020: 98f0 e53d cf6a 2c3d 0b12 723d bec1 cebd
00000030: 7f2b 41bc 0dd9 393d 49d7 163e 6849 13be
00000040: 3b27 a43c f7ca 2f3e b40c ef3d c7b8 603e
00000050: 057e a03d a723 d83d 172a 103d 4a28 2cbd
00000060: 7aa1 9dbd c190 0ebe 81d3 723d aace acbd
00000070: 947c c63d b526 64be a007 05be f960 cebc
00000080: 8216 1ebe 05ff 08be 1ee5 91bd 7e1d f9bd
00000090: 92ad 493d 44b1 c8bd 404c 62bd 5935 743e
000000a0: 45ba 493d 6b0c 81be 7b62 993c a7a0 f73d
000000b0: 461b 3dbe 9164 9a3d 481e dc3d 0eb8 27be
000000c0: d86c e93d 594a d1bd d18f ec3d 2ea0 f13d
000000d0: 868a d6bd 2ed6 d33d cebd c63d 3000 683e
000000e0: 1e36 7b3d b9ec 8e3e 7026 72be cb87 893d
000000f0: 8a59 37bd 3ef3 1c3e 9673 823d 1560 053d
0.17783538 0.039738577 -0.14729744 0.147975 -0.20584016 -0.1031363 0.34028193 0.10671273
0.1122753 0.042094048 0.05909924 -0.10095547 -0.011790155 0.04537301 0.14730562 -0.14383471
0.020038238 0.17167269 0.11672345 0.21945487 0.07836536 0.10553675 0.03519639 -0.04203061
-0.07696815 -0.13922407 0.059283737 -0.084378555 0.0969173 -0.2228039 -0.1299119 -0.025192725
-0.15438274 -0.13378532 -0.07123779 -0.12163828 0.049237795 -0.09799436 -0.0552485 0.23848476
0.049249906 -0.25204787 0.018723717 0.12091189 -0.18467435 0.07538713 0.10747963 -0.16378805
0.113977134 -0.10219259 0.11550868 0.1179813 -0.1047564 0.10343586 0.09704171 0.22656322
0.061330907 0.2791498 -0.23647475 0.067153536 -0.044763125 0.15327165 0.063697025 0.032562334

exp_avg f4 [64, 25]
00000000: 60c2 9339 0154 23b9 2ba4 07b7 f5f0 d1b7
00000010: 4487 49b0 ca7a 77ba 03ab 1cb9 2388 acb9
00000020: f99a 6db9 d341 8cb8 0286 203a e9d0 373a
00000030: 826c 1337 d34c b3b9 86ca 52b9 b1b9 0838
00000040: 304b 033a 5b4e 433a c5f1 9838 1140 13b9
00000050: c878 6c38 ed27 6239 73ce 273a 4009 6539
00000060: 5853 c4ba 31df 5fba f58a b039 9213 5937
00000070: a404 1738 191b cb30 062b 8f3a 7afd b639
00000080: fa8a 153a e4c5 eb39 cd02 0e39 89b9 b2ba
00000090: ede2 03bb cfa6 9ab7 5d1b 563a 370b dc39
000000a0: d4d6 92b8 95e7 6fba 3075 d1ba 7c70 3db9
000000b0: 587f c239 e402 f8b8 3564 f1b9 7a68 bcba
000000c0: e35d eeb9 0856 a03b 397f b0b9 dfb7 3339
000000d0: fcdf 0137 aa00 d237 19f5 4e30 16ed 0b3a
000000e0: 97b4 4f39 4330 ae39 2308 8539 19a0 9c38
000000f0: bd88 3cba e3dd 8cba bfae 43b7 1673 cd39
00000100: 6141 9239 0b3a 24b8 7657 e3b9 d022 73ba
00000110: 2ac5 cab8 da7f 6739 308b 6ab8 b9db 93b9
00000120: f6c8 2aba a487 70b9 3b4d 1b3b d0cd b038
00000130: 8123 5eb8 a57b 4fb6 b986 e0b6 52c4 b0af
00000140: 43fc cdb9 bf5d 10b8 1132 c0b8 b023 cbb8
00000150: 1acd 9ab7 c506 df38 016c 0339 3d6e 7536
00000160: 18d4 06b9 8453 c8b8 c20b c036 d417 9338
00000170: 743b 5b39 bd44 0537 5ac3 f6b8 d961 7637
00000180: e6ce 6f38 4cd0 4039 c45a 5c38 756c f738
00000190: 2352 f5ba 90a0 0c3a 7ae7 da37 55c9 8038
000001a0: 0fe4 0631 c35a 4cbb 54d0 9939 c7ee 8c3a
000001b0: c2b7 4b3a 3826 4a39 04a1 daba bf8c 07bb
000001c0: b39f 8eb7 f9de 913a fa4b 393a 3e69 aab8
000001d0: a45c 82ba 7cb0 06bb d402 5db9 4240 4e3a
000001e0: 13b3 07b9 54d3 2dba e888 d7ba 58a0 e6b9
000001f0: 22e4 193c 4a81 e239 1c95 15b8 9baa 52b6
00000200: 7dca 37b6 f9c4 d8ae 9a8d 043b fa75 c237
00000210: fd58 c1b8 752b 12b8 f7e9 21b7 8ee2 69b8
00000220: 62d3 11b8 d31c ffb5 2940 75b8 d8a0 92b8
00000230: 26df 09b6 6e85 92b8 7b99 b538 a61e 2ab5
00000240: 9d63 04b9 b5d5 e536 cb6a 4537 6c9e 8ab8
00000250: d51a d6b7 2830 f8ba e88a 88ba c038 6439
00000260: 56f8 5137 3542 c237 b977 5630 8767 53bb
00000270: dfed a338 ee5a da39 8cba ae39 cdf7 b638
00000280: 6c79 f5b9 e750 40ba 609b 87b6 8dc7 fc39
00000290: f00b 9839 5c2c ecb7 4a0f 8ab9 803e 3eba
000002a0: 4cb2 81b8 e961 d439 3fed 70b8 dc74 4ab9
000002b0: 2580 d4b9 b91d 99b8 83ba a13b cd07 873a
000002c0: 140c 9fb9 0115 79b7 6708 10b8 2b17 9eb0
000002d0: 5e6d 493b 72a4 31b9 ef1e 28ba 9743 e8b9
000002e0: 462b f1b8 42dd 003a 8114 983a f4bc 2337
000002f0: 78d2 3eba c98d f7b9 1108 1438 35e1 ab39
00000300: 33fe 943a 20fa be38 2a8e 07ba 5a85 a538
00000310: 07ee 9c39 9872 0f3a e1e0 0f39 f932 a3bb
00000320: 25ad 2939 bc08 4238 8edf 4935 9a2e c536
00000330: 85e2 762f 54c0 da3a 7743 7038 f507 8a38
00000340: a4db 7338 db7a 7337 5d77 0ab9 2740 8fb9
00000350: 1167 a5b6 08a0 0a39 b411 4938 9d0f f3b6
00000360: 1ab3 92b8 215d 7fb9 00ba fab7 9153 b136
00000370: 1f17 8eb7 755d a7b8 4b04 29b9 5d8d 8db8
00000380: 3b7a 9aba d9dd 963a ac38 81b9 5ef0 4fb7
00000390: 6f32 e4b7 af06 80b0 56e5 483b 3bd9 11b9
000003a0: 2a8d 08ba 231a ccb9 ef76 cab8 6496 113a
000003b0: 1d6f 993a 2d28 c836 d210 07ba caa4 afb9
000003c0: 0055 2038 1063 b139 ec3c 703a edf6 d938
000003d0: 1e68 dcb9 8fc6 9738 a277 6339 c681 303a
000003e0: ba84 2f39 ba29 bdbb b02b 88b8 314c 9238
000003f0: e7f9 fd35 5860 3537 da5a d32f aa3b d03a
0.00028182846 -0.00015576185 -8.08485e-06 -2.5026946e-05 -7.33156e-10 -0.0009440599 -0.00014941026 -0.00032907826
-0.00022659813 -6.687981e-05 0.00061234843 0.0007012026 8.787147e-06 -0.0003419878 -0.00020102607 3.2597865e-05
0.0005008457 0.00074503355 7.292958e-05 -0.00014042879 5.637927e-05 0.00021567913 0.0006401308 0.00021842588
-0.0014978452 -0.0008540033 0.00033672867 1.29387645e-05 3.6005527e-05 1.4777896e-09 0.0010922856 0.000349026
0.0005704608 0.00044970133 0.00013543219 -0.0013635616 -0.0020124272 -1.8435907e-05 0.00081675296 0.00041970026
-7.0018374e-05 -0.0009151635 -0.0015980359 -0.00018066348 0.00037097442 -0.000118261 -0.00046041762 -0.0014374398
-0.00045464849 0.004893068 -0.00033664124 0.00017139268 7.74115e-06 2.503426e-05 7.529067e-10 0.0005337758
0.00019808333 0.00033223824 0.000253738 7.46848e-05 -0.00071920065 -0.001074728 -1.1663592e-05 0.00039186393
0.00027896 -3.9154704e-05 -0.00043361977 -0.0009274902 -9.668835e-05 0.00022077505 -5.5919576e-05 -0.0002820173
-0.0006514931 -0.00022938714 0.0023697156 8.4306695e-05 -5.296199e-05 -3.0917374e-06 -6.691404e-06 -3.2153707e-10
-0.00039288597 -3.4419583e-05 -9.164599e-05 -9.6864416e-05 -1.8453738e-05 0.000106347296 0.00012533368 3.6572012e-06
-0.00012858247 -9.552299e-05 5.7234147e-06 7.0139446e-05 0.00020907616 7.943422e-06 -0.00011766581 1.4685525e-05
5.717473e-05 0.00018388144 5.253662e-05 0.000117980795 -0.0018716495 0.0005364502 2.6095415e-05 6.141017e-05
1.9629203e-09 -0.0031182028 0.0002933765 0.0010752314 0.00077712175 0.00019278459 -0.0016680066 -0.0020683256
-1.7002085e-05 0.0011129073 0.00070685113 -8.1258346e-05 -0.0009945822 -0.002055197 -0.00021077256 0.00078678515
-0.00012941314 -0.00066309166 -0.0016444 -0.00043988484 0.00939277 0.00043202407 -3.5663237e-05 -3.1391744e-06
-2.7386989e-06 -9.857532e-11 0.0020226003 2.318154e-05 -9.2195325e-05 -3.4849585e-05 -9.650822e-06 -5.5762524e-05
-3.476756e-05 -1.900737e-06 -5.8472306e-05 -6.991782e-05 -2.054448e-06 -6.986676e-05 8.6593405e-05 -6.3374534e-07
-0.0001262561 6.8496106e-06 1.176698e-05 -6.609861e-05 -2.5523283e-05 -0.001893525 -0.0010417374 0.00021764915
1.2515191e-05 2.3157432e-05 7.802288e-10 -0.0032257752 7.8167526e-05 0.00041647948 0.00033326854 8.724593e-05
-0.00046820508 -0.0007336274 -4.0414016e-06 0.00048213862 0.00029000593 -2.8154049e-05 -0.00026332802 -0.0007257238
-6.18441e-05 0.0004050874 -5.744141e-05 -0.00019307755 -0.00040531266 -7.301145e-05 0.004935564 0.0010302007
-0.00030335842 -1.4846447e-05 -3.43401e-05 -1.1502598e-09 0.0030735354 -0.00016941296 -0.0006413301 -0.00044300847
-0.00011499836 0.00049157825 0.001160279 9.759551e-06 -0.0007279287 -0.0004721715 3.5293462e-05 0.00032783454
0.0011367261 9.1064954e-05 -0.00051710254 7.892652e-05 0.00029931983 0.0005472093 0.00013721317 -0.0049804416
0.00016181597 4.626134e-05 7.520365e-07 5.8764826e-06 2.2454046e-10 0.0016689398 5.728329e-05 6.581835e-05
5.814027e-05 1.4512533e-05 -0.00013205172 -0.00027322883 -4.9293817e-06 0.00013220322 4.793862e-05 -7.243782e-06
-6.995183e-05 -0.00024353388 -2.9888935e-05 5.2847395e-06 -1.6938486e-05 -7.980588e-05 -0.00016118695 -6.749735e-05
-0.0011785695 0.0011510208 -0.0002464702 -1.2394126e-05 -2.7203203e-05 -9.315125e-10 0.0030654273 -0.00013909202
-0.00052090234 -0.00038929385 -9.654264e-05 0.0005553721 0.0011706088 5.9651416e-06 -0.0005152348 -0.00033501378
3.8226135e-05 0.00033833878 0.00091643515 0.0001039336 -0.00042039243 7.2372255e-05 0.00021692974 0.0006733205
0.00016738745 -0.0057727965 -6.493123e-05 6.976014e-05 1.89227e-06 1.08108725e-05 3.844523e-10 0.0015886922
